_________________________________________________________________
Layer (type)                 Output Shape              Param #   
=================================================================
dense_70 (Dense)             (None, 512)               5276160   
_________________________________________________________________
dropout_47 (Dropout)         (None, 512)               0         
_________________________________________________________________
dense_71 (Dense)             (None, 2048)              1050624   
_________________________________________________________________
dropout_48 (Dropout)         (None, 2048)              0         
_________________________________________________________________
dense_72 (Dense)             (None, 20)                40980     
=================================================================
Total params: 6,367,764
Trainable params: 6,367,764
Non-trainable params: 0
_________________________________________________________________
Train on 240 samples, validate on 160 samples
Epoch 1/25
240/240 [==============================] - 2s 9ms/step - loss: 3.0617 - acc: 0.0375 - val_loss: 2.9420 - val_acc: 0.1500
Epoch 2/25
…
