60000 train samples
10000 test samples
_________________________________________________________________
Layer (type)                 Output Shape              Param #   
=================================================================
dense_25 (Dense)             (None, 512)               401920    
_________________________________________________________________
dropout_17 (Dropout)         (None, 512)               0         
_________________________________________________________________
dense_26 (Dense)             (None, 512)               262656    
_________________________________________________________________
dropout_18 (Dropout)         (None, 512)               0         
_________________________________________________________________
dense_27 (Dense)             (None, 10)                5130      
=================================================================
Total params: 669,706
Trainable params: 669,706
Non-trainable params: 0
_________________________________________________________________
Train on 60000 samples, validate on 10000 samples
Epoch 1/25
60000/60000 [==============================] - 7s 114us/step - loss: 0.4907 - acc: 0.8570 - val_loss: 0.2214 - val_acc: 0.9363
Epoch 2/25
…
